model/stage4_standard_pinn_model.pth (torch, 18037 bytes, 9 tensors)

network.layyers.0.weight f4 [32, 2]
00000000: 3b35 5fbe 4f54 2ec0 f114 08bf 9438 fa3b
00000010: f9da 033e 2cc0 f73d 4631 0d3f b0e2 10be
00000020: 1173 01bf 76ae 1b3e a55b 31bf cf1b 803d
00000030: 088c c93e c002 c53e 0ade 623f f1fa 3fbf
00000040: f4d2 523e 4328 69be 567f 0d3f bc3d 3dbf
00000050: b98c 0cbe 2db7 92bd 76d5 823e 3b79 943e
00000060: 1e0c 31bc d74b 2f3f 9a8c 0ec0 1fe8 03c0
00000070: 4462 8fbe 482d e23d e3ce 41be bf03 00bf
00000080: 82ed 0ebf b5d7 33bf 4f72 c03e 249a fcbe
00000090: ab42 693f 28c5 f53e 15db 9fbe 5723 21ba
000000a0: f1cb b13d 9252 9f3e 2cf9 fbbe 80f4 d7bd
000000b0: ba8d 893e 74f4 afbf 61b1 4e3f 445b 3dbf
000000c0: 3a19 0abf 1fe8 f83d de76 02bf 752e 96bf
000000d0: 5a10 27bf 1a7c 02bf 3950 dfbe e265 72be
000000e0: af59 02be 5f06 103f c96d 9fb9 3346 713f
000000f0: 046c 013f 6599 4bbf 78f9 42bf 56f5 413f
-0.2179765 -2.7238958 -0.53156954 0.007636139 0.128765 0.12097201 0.5515331 -0.14148974
-0.505662 0.1520327 -0.69280463 0.06255304 0.39364648 0.3847866 0.88620055 -0.7499228
0.20588285 -0.22769265 0.55272424 -0.73922324 -0.13725556 -0.07163844 0.25553483 0.28998742
-0.010806112 0.684751 -2.2273316 -2.0610425 -0.28004658 0.11043793 -0.18926577 -0.50005716
-0.5583116 -0.7025102 0.3758721 -0.4933635 0.9111735 0.4800198 -0.31221834 -0.00061469286
0.08681477 0.31117684 -0.4921354 -0.105446815 0.2686594 -1.3746476 0.8073941 -0.73967385
-0.5394474 0.121536486 -0.50962627 -1.1732928 -0.65259326 -0.50970614 -0.43615893 -0.23671678
-0.12729524 0.5625972 -0.0003040864 0.9424774 0.50555444 -0.79530936 -0.7616191 0.7576498

network.layyers.0.bias f4 [32]
00000000: 8a4f ddbe 0116 523f a413 2a3e a45d 49bf
00000010: 3db0 323f 99b1 aebe d338 cf3e b49b 80bf
00000020: 62d3 15bf a9eb 943c 2c8c b93e 8133 40bf
00000030: 0247 24bf ec14 36bf 1b8a babe 28c2 e83e
00000040: af9c 41bf 9745 c0be c7b2 e53e e24c 0bbf
00000050: 26c5 b03d e75a 30be cb98 033f e4f4 0cbf
00000060: 6819 493f 1948 b3bd db27 2cbf 1ed5 9f3e
00000070: f996 203e 4711 81be 1530 9f3e f4f9 233f
-0.43224746 0.82064825 0.16609055 -0.7865851 0.6980017 -0.3411987 0.4047304 -1.0047517
-0.5852567 0.018178778 0.36239755 -0.7507859 -0.6417085 -0.71125674 -0.3643349 0.4546063
-0.75629705 -0.37553093 0.4486296 -0.5441419 0.08631353 -0.17222176 0.5140502 -0.55061173
0.7855439 -0.08753986 -0.67248315 0.31217283 0.15682591 -0.25208494 0.3109137 0.64053273

network.layyers.1.weight f4 [32, 32]
00000000: 62c9 fa3c 5d8e edbd bd85 ab3d cd5d a13e
00000010: d3d4 e3bc f677 17be 0807 b23d d50c fc3e
00000020: e14e 0bbc 34e2 863e 4f7b 9cbd 216c 393e
00000030: b2a8 91be 4749 f43c b516 5fbd 9420 403d
00000040: 81a7 cc3d 786c be3d f747 803e e5a0 a2bd
00000050: 6b0a 0b3e 2221 2fbc 3ae6 e13e 666d ce3e
00000060: ba31 44be 6940 333c 206f e33c ba0c 1bbe
00000070: 8c47 27be 195c 5dbe facb 453e 951e 51be
00000080: 424e 913d ab7c 77bd 0b8e 0d3e 2679 673e
00000090: d362 73be ab0f 733d 315f dcbd 593f 38bd
000000a0: 0cb4 41bd 08e3 f4bd 9445 133f f527 d7be
000000b0: 7112 bd3d 6a77 8abb 943a 0fbe 6f15 823e
000000c0: 2db6 0e3e fb7a f43d 0365 05be 85bb 14be
000000d0: 6b89 4cbb 7c9c 98bd d436 b1bd 6e5a dbbd
000000e0: de07 9fbd b515 323e a72d 283e cc59 0ebe
000000f0: 08a9 343e ad9a 4a3e 9b9b 483d df10 f6bd
00000100: 4bc6 123c 3f76 12be d05e 523e 0861 f13d
00000110: d278 8ebe 3667 2a3e d57f f2bc 406e 693e
00000120: 2d23 b93d c8fd 363d fd95 6fbe 8dde 58bd
00000130: b87e 2bbe 1ad0 b33d 04a3 933c aa4c 4fbd
00000140: d888 0b3e 9de3 533e 68bf 00be 7328 c33c
00000150: 47e0 d73d b5e5 17be 1bd6 f1bd cbe5 5eba
00000160: 6d59 bcbc e97c fc3d 738a f8bd 2c1d febc
00000170: ea18 28be ce61 a83d bbb3 4a3d 5962 20be
00000180: a072 89bc f3ec 093f cf60 69bd ab02 a6be
00000190: ae70 973e c661 013e 2b7d 253e fca8 f2bd
000001a0: f61c 6fbe 6c88 55bd 4ce1 4d3e 2a50 99be
000001b0: bc0b 3cbe bdee 65be 91a0 223c fc51 013f
000001c0: ee46 92be d9e4 3fbe 7eb1 7b3d 72f4 a13b
000001d0: 66ad a2bd a63e 03be cae0 1c3e 6626 faba
000001e0: 0024 c13e 2d1b fc3d 403d f3bc 7ef3 8e3e
000001f0: 02a4 0c3e 2dd0 cabd 42af 8e3d 3c6e 113e
00000200: a79c cfbc 3427 59be f530 a1bd f871 87bd
00000210: 001e 1abe 3a4b e93d 349d b03d 61f9 6c3e
00000220: a4d1 09bf 9a34 84bd b406 473f 5fd7 1fbe
00000230: ebae ecbd f6c0 723e 476e 2a3e d47d e1bd
00000240: b521 d2bd b5f4 c2bd 153c 623d 17cc af3b
00000250: bacb 84bd 4476 11bd eac8 24bd e0cf d73d
00000260: c595 12be 8b80 3c3e 994d 8abd 72a6 8dbd
00000270: a165 bb3d 2800 073f 033e 183e 3c8b a7bd
00000280: 9eec 8d3e 467d 7dbe 6fd4 843d 8e6b 5e3c
00000290: 7e49 933d 73f2 203e cb9b c93d a358 0a3d
000002a0: 6a3e 6ebe 17e8 d7bd b197 88be dd4d 0e3f
000002b0: 98f6 b53d 4ee4 aa3d 9937 763e 782b a0be
000002c0: 40dd b23d 5e48 18bd 3209 7ebe ccd3 a6bd
000002d0: 0993 123e 7da0 0c3e 2072 a4be 7f0b 553e
000002e0: 710f 89be 7d4b 8abc 5842 883e 9862 34be
000002f0: 4635 2b3e c66a 873f 0bda 403c a4ec 24bd
00000300: a77c 17bd e904 f1bd 143e eb3d 6df5 553e
00000310: f2ca 83be b440 df3b d1f7 acbd b5e5 ad3e
00000320: 3340 28bd 68da af3d 32f9 0cbe 0fe4 e83e
00000330: 7434 d4bd 7335 1e3e 14c3 9dbd 6174 123e
00000340: e97f fe3c d7fe 403e 537a e5bd f176 1fbd
00000350: 70ff 533d cbc1 8cbc 6a1d 9abc 8fd0 ad3e
00000360: 690a 3ebe 5747 b33c 3b98 043d 11f4 87be
00000370: a48b 1abe be6a 90be b223 823d 6b2f 1bbe
00000380: e903 8fbc 4cb9 1ebd f5f2 96bd 02b8 6cbd
00000390: 047f 3f3e ef37 943d 6647 1dbd 6eb0 09be
000003a0: 1fee d3bd 8364 a8bd 01f7 403f d090 28bf
000003b0: 1396 8fbd 6def 89be db9a 14bd d294 1b3e
000003c0: da68 443b 2e69 a63c fb7d 4bbd 4c40 c83c
000003d0: d70a 9b3d 3fba 04bd c9af a83d 7b7f 73bd
000003e0: 0705 babd 9e00 80bd 29e6 58bc 9f50 503d
000003f0: 3b1e e4bd 6699 bebe e89a 413e 381b 163d
0.030613605 -0.11599419 0.08375118 0.31516877 -0.027811443 -0.14791855 0.08692747 0.4922854
-0.008502693 0.26344454 -0.07640707 0.18107654 -0.28449017 0.029820098 -0.054465014 0.04690607
0.09992886 0.092980325 0.25054905 -0.079408444 0.13578193 -0.010689052 0.4412096 0.4031784
-0.19159594 0.01094065 0.02776295 -0.15141574 -0.16335887 -0.21617164 0.19316092 -0.20421822
0.070950046 -0.060421627 0.13823716 0.22604808 -0.23768167 0.059341114 -0.10760344 -0.044982288
-0.047290847 -0.11957365 0.5752804 -0.42022672 0.09232033 -0.004225661 -0.1398719 0.25406978
0.13936682 0.11937519 -0.13026814 -0.14524658 -0.0031209837 -0.07451722 -0.08653036 -0.107106075
-0.077651724 0.17391093 0.16423665 -0.13901442 0.17642605 0.19785567 0.048976522 -0.12014937
0.00895841 -0.1430292 0.2054398 0.11786085 -0.27826554 0.16640934 -0.02960197 0.22795963
0.090399124 0.04467562 -0.2339706 -0.052946616 -0.16747558 0.087799266 0.018022068 -0.050610222
0.1362642 0.20692296 -0.12573016 0.023822999 0.105408244 -0.1483372 -0.118084155 -0.000850287
-0.02299186 0.12328512 -0.12135782 -0.03101977 -0.16415754 0.0822178 0.04948781 -0.15662517
-0.01677829 0.5387718 -0.05697709 -0.3242391 0.29578155 0.12634954 0.16161029 -0.118486375
-0.23350891 -0.052132055 0.20105475 -0.29943973 -0.18363851 -0.22454353 0.009925977 0.50515723
-0.2856974 -0.18739642 0.061448567 0.00494247 -0.079432294 -0.12816867 0.15320125 -0.001908493
0.37722778 0.12309871 -0.029692292 0.27920145 0.13734439 -0.09902988 0.069670215 0.14202207
-0.025343252 -0.21206361 -0.07870666 -0.06613535 -0.15050507 0.113913015 0.08623734 0.23142006
-0.5383551 -0.064553455 0.77744603 -0.15609501 -0.115568005 0.23706421 0.1664363 -0.11010328
-0.10260335 -0.095193304 0.05523308 0.0053649056 -0.0648417 -0.035513178 -0.04023067 0.10537696
-0.14314945 0.1840841 -0.06753082 -0.069165125 0.091502436 0.52734613 0.14867406 -0.08180854
0.27719587 -0.2475482 0.06485831 0.013575448 0.07191752 0.15717487 0.09844168 0.033775937
-0.23265997 -0.105423145 -0.2667823 0.5558756 0.08884925 0.08344327 0.24044646 -0.31283164
0.08733606 -0.03717839 -0.24808195 -0.08145866 0.14313902 0.13733096 -0.3211832 0.20805167
-0.26769593 -0.016881699 0.26613116 -0.17615736 0.16719541 1.057946 0.0117707355 -0.04026474
-0.036984112 -0.11768515 0.1148645 0.20894404 -0.25740772 0.006813133 -0.08445705 0.33964315
-0.04107685 0.085865796 -0.13766935 0.45486495 -0.10361567 0.15450077 -0.07703224 0.14302208
0.031066852 0.18847214 -0.11204972 -0.03893179 0.051757276 -0.017182251 -0.018812854 0.3394818
-0.18558659 0.021884603 0.03237174 -0.26553395 -0.15092331 -0.28206438 0.063544646 -0.15154807
-0.01745792 -0.03875093 -0.07370559 -0.05779267 0.18700796 0.07237231 -0.03839817 -0.13446209
-0.10348152 -0.08222296 0.753769 -0.65845966 -0.07011046 -0.2694048 -0.036280494 0.15193489
0.0029969723 0.020313825 -0.04968069 0.024444722 0.07570427 -0.03240418 0.08236653 -0.059447747
-0.0908299 -0.06250118 -0.013238468 0.050858136 -0.111385785 -0.3722641 0.18906748 0.03664705

network.layyers.1.bias f4 [32]
00000000: ebdc f23d 664a 4b3e b1ad 153e e5ae 143e
00000010: 4ef4 05be 249e 10be 3919 03be 4fbe 1a3e
00000020: ecc5 1f3e 6579 42be 1469 043d 84d4 2b3e
00000030: cbc7 513e ee94 2cbc 06be 9e3c 21a3 8f3d
00000040: 8db2 44bd 9388 6c3d 3dcb 5cbd 4016 413e
00000050: c59f 5c3d fa2d d03c 573c ab3d 889f eebd
00000060: d806 40be 7ca8 043e d138 c3bd ef7d 2c3d
00000070: 7eeb 71bd 2181 d4bd 99cc ee3d d6cb 17be
0.11858543 0.198526 0.1461704 0.14519842 -0.13081476 -0.14122826 -0.1280259 0.1511166
0.15602845 -0.18991621 0.032326773 0.16780287 0.20486371 -0.0105335545 0.01937772 0.07013536
-0.04802184 0.057747435 -0.05390476 0.18856144 0.053863306 0.025412548 0.08361118 -0.11651522
-0.1875261 0.12954897 -0.09532321 0.042112287 -0.059062473 -0.10376192 0.11660118 -0.14823851

network.layyers.2.weight f4 [32, 32]
00000000: 31d9 3e3d 7b80 903e 874c 1d3e 20ae 163e
00000010: d615 a73d 3699 d7bd 9835 bdbd af20 563e
00000020: d303 643d 0644 50be 8829 123e 76a1 33be
00000030: e84c 543d 7255 1ebe 2a93 ba3e fea3 be3d
00000040: 977b aabe c71a 1abd 5093 06be c2c1 9f3e
00000050: c8cf a6be c1a5 36bd 6b79 2e3e 962c a4bd
00000060: c217 e2bd 2010 963e 6ea3 13bd fba5 473e
00000070: c7a3 0e3d 5ec8 2ebe 3e34 81bc 3fb5 593e
00000080: 5fca 153e 807e 84be 8477 08be c05a 28be
00000090: bec1 12be 332a 51bc a698 4fbe f450 2cbe
000000a0: 2db5 1b3e 061f 523e e7f8 1a3d 81ed 223d
000000b0: 448f 8a39 6620 333e 29ee dbbc 28a9 303e
000000c0: a3bc d13d 5bb6 d7bd 30d6 9e3d 40c7 c1bd
000000d0: 3dfa 013d 0f44 18be 1aad f9bd adc0 003d
000000e0: 14ee 1ebd 9057 2cbe fe97 18be 836f 03be
000000f0: 501b d5bd 6686 e0bd 913e 9d3c 99d2 29bd
00000100: 9bc4 2abc 89b7 8cbe 4c48 1f3d fbe0 3abe
00000110: 67c9 f53d fb25 3a3c 63ab 13be 4443 51be
00000120: 710f 17be 243a fb3d fa15 9e3a 37e1 1d3d
00000130: c4a1 91bd 74a8 e6bd ac2c 43be f393 80bd
00000140: 6109 823e 7faa 0c3d a0e6 b73c a016 55be
00000150: 845b 453e ea9f d73d 437f 32bd 20de 2c3d
00000160: f315 bd3d 03dc 2b3d bf73 88bb 05b9 bf3d
00000170: 6920 67bc 34a6 a0bd 085c b03d a726 8a3d
00000180: b865 8ebe 1e56 e83d ad7a 9bbe 1bd8 a33d
00000190: 2ab1 9abe 10ad dabc 9fb5 dcbe b985 e63d
000001a0: 550a 0abe 7453 35bd f346 3bbe 2c03 e63e
000001b0: e375 483e dae0 413b dddf 33be e202 613e
000001c0: 4b29 7dbe cb83 20be c752 d6bd 9029 c6bd
000001d0: 56e5 e93d b1fe 8f3c eae3 913d 92d0 9abc
000001e0: ddfd 2bbe 0382 ca3e 36ae ccbe b11a 4a3f
000001f0: b01d a63d 73e6 9abc d4ac 18be f294 57be
00000200: 345f 2a3e 07dd 80be 6e9e 10bd 030d 0a3d
00000210: 5784 f63b 75eb 14be 6a33 9fbb e4f0 88be
00000220: 18c7 ff3d 780d 403d d31d ae3d e620 40bd
00000230: c79c 213a 4a5a 543e a588 ddbc cb6e 563e
00000240: b115 333e 3a8a 90bd 471b 943c 1227 80be
00000250: f88d d53b 5f12 06be 3ef8 ff3d 9829 3fbe
00000260: aa21 51bd d325 0c3b 90b2 91be 25b5 41be
00000270: 19c8 bebd dcc7 c43c a4c1 f23d e9fc a33c
00000280: 713e f23d 809c d63e 05d7 3abd b429 ad3c
00000290: 8d4d 923d c6cb 8a3d 16e1 673d 4340 60bd
000002a0: dc31 83bd 03a1 403d 7fa3 be3d a652 4e3e
000002b0: 308b 3dbd 6c86 e93d ae57 46bd a699 82bd
000002c0: d215 10bd 1dce e43d 760f f03d ac3b 28be
000002d0: e68b 82be 321c e83d 7017 863d 29ff ee3d
000002e0: f52e 6fbd 9a23 7dbd 8f3f a0bc 2d2d 153e
000002f0: b413 39be cf52 313d 7865 cebd 4a59 393d
00000300: 7cbf 2a3e a772 a1bb b7d8 843e 4e8b 14be
00000310: 6add 39bd 4cf5 33bd b4a7 243e 74a5 7ebe
00000320: 7802 88bd 5241 2a3e b5d4 8a3e a3af 2cbf
00000330: 5c36 3e3e 8dc1 7d3c 521e aa3e def0 cabe
00000340: 5456 ed3e af64 c33d da92 273e 804d b1bd
00000350: fe1e 18be 6aa0 09bd b22e b4bd 1cf2 2b3e
00000360: 817f 123d 034e 80be a7a3 c23e 8c82 7abe
00000370: 5cb9 1c3e 7146 053e b794 e33d d527 953e
00000380: 6707 6ebe b433 a5be 3e26 8fbe fab5 c33d
00000390: 68a5 f3be 8e64 4bbd 13dd 01bf db63 203e
000003a0: 77f6 7abe 8b3f a7bd 7c83 a7be e70d fc3e
000003b0: 252c f3bd 2c31 96be 92dd c3be 7681 553e
000003c0: 4a83 1d3e 8eaa 6fbd 52ec ba3d aae3 d4bd
000003d0: dfa6 963e 1780 ad3d 8d80 e43d f273 9f3e
000003e0: 1323 d33b 0736 3a3d 926d 16bf 0213 213f
000003f0: 5763 2d3e e36d 0d3d 453b f1bc 0442 98be
0.04659385 0.28223023 0.15361224 0.14714861 0.08158462 -0.105272695 -0.09238738 0.20910905
0.05566771 -0.20338449 0.14273655 -0.17542061 0.051831156 -0.15462282 0.36440402 0.09308623
-0.33297417 -0.037623193 -0.13142133 0.31202513 -0.325804 -0.04459167 0.17038505 -0.080163166
-0.11039688 0.29309177 -0.03604453 0.1949691 0.03482416 -0.17068622 -0.015771981 0.21260546
0.1462798 -0.25877762 -0.13326842 -0.16440868 -0.1433172 -0.012766409 -0.20273075 -0.16827756
0.15205832 0.20519647 0.037835028 0.039777283 0.00026428152 0.17492828 -0.026846962 0.17252028
0.10241058 -0.105328284 0.07755697 -0.09461832 0.031732786 -0.14869712 -0.1219122 0.03143375
-0.038801268 -0.16830277 -0.1490173 -0.12835507 -0.104056 -0.109631345 0.019194873 -0.041460607
-0.010422851 -0.27483776 0.038887307 -0.18249886 0.12001305 0.011361594 -0.14420848 -0.20435816
-0.14751984 0.12266949 0.0012060993 0.03854486 -0.071109325 -0.11262599 -0.1906001 -0.06278219
0.2539778 0.034342285 0.022448838 -0.20809412 0.19273192 0.10528548 -0.043578397 0.042204022
0.09232702 0.041957866 -0.0041641886 0.093614615 -0.014106848 -0.07844201 0.086113036 0.067456536
-0.2781198 0.113445505 -0.30367032 0.08000203 -0.3021329 -0.02669385 -0.43107316 0.11255974
-0.13480504 -0.04426904 -0.18288784 0.44924295 0.1957622 0.0029583485 -0.17565866 0.21973756
-0.24722783 -0.15675275 -0.10465007 -0.09675896 0.114206955 0.017577501 0.07123549 -0.018898282
-0.1679606 0.39552316 -0.39976662 0.7894698 0.08111131 -0.018908715 -0.14909679 -0.21052912
0.1663788 -0.2516863 -0.03530734 0.033703815 0.0075231004 -0.14542945 -0.004858424 -0.26746285
0.12489146 0.046887845 0.08501782 -0.046906374 0.0006165024 0.20737568 -0.027042696 0.20940702
0.17488743 -0.070576146 0.018079413 -0.25029808 0.006517168 -0.13092946 0.1249852 -0.1866821
-0.051057495 0.002138485 -0.28456545 -0.18916757 -0.09315509 0.024021082 0.1185334 0.020018058
0.11828316 0.41916275 -0.045615215 0.02113805 0.07143698 0.06777148 0.056611143 -0.054748785
-0.06405994 0.047028553 0.09308528 0.20148715 -0.046275318 0.11402592 -0.04842346 -0.06376962
-0.03517706 0.111721255 0.11721699 -0.16429013 -0.2549736 0.11333503 0.06547439 0.11669762
-0.05839439 -0.06180153 -0.019561557 0.14568014 -0.18073922 0.043291863 -0.100779474 0.04525117
0.16674608 -0.0049269977 0.2594659 -0.14506266 -0.045377173 -0.043935105 0.16079599 -0.24867803
-0.06641096 0.1662648 0.27115408 -0.674555 0.18575424 0.015488041 0.33226258 -0.39636892
0.46354926 0.09540688 0.16364613 -0.0865736 -0.14855573 -0.03360025 -0.08797969 0.16791576
0.03576613 -0.25059518 0.38015482 -0.24463862 0.15305084 0.13015153 0.111123495 0.29131952
-0.23245011 -0.3226601 -0.27958864 0.09556194 -0.47587132 -0.049656443 -0.5072796 0.15663092
-0.24508081 -0.08166417 -0.32717502 0.49229357 -0.11873654 -0.2933439 -0.38254982 0.20850167
0.15382114 -0.058512263 0.09127106 -0.10394986 0.29424188 0.08471697 0.111573316 0.31143147
0.00644339 0.04546168 -0.5876094 0.6291963 0.16932426 0.034528624 -0.029447207 -0.29737866

network.layyers.2.bias f4 [32]
00000000: 0f67 3cbd 374c 9a3d 66a9 a03d b386 063d
00000010: 92e2 10bd e26f 8a3d 88f9 0abc 2964 1bbb
00000020: 8c85 8cbd b9ae 9abd 9fa1 d33d 5ccc 353e
00000030: 7064 f03b 2f50 3dbe 0bbe 21be cd5b 3c3e
00000040: 1aa1 1fbe a8d9 9f3d b8a9 17bd 5762 b93d
00000050: 4379 92bd 80e5 24be 561c 24be c8b7 5cbd
00000060: c661 44bc 1618 5c3c 4ee0 a33d a3db d8bd
00000070: ce5a 123d d9a1 cbbd b62d 0f3e f697 03be
-0.04599672 0.07534068 0.0784481 0.032843303 -0.035372324 0.06759621 -0.008482344 -0.0023710823
-0.068614095 -0.07552857 0.10333561 0.17753738 0.007336192 -0.18487619 -0.15795152 0.18394394
-0.15588799 0.078051865 -0.03702709 0.0905196 -0.07152035 -0.16103172 -0.16026434 -0.053886205
-0.011986202 0.013433477 0.08001767 -0.105887674 0.03573113 -0.09942979 0.13982281 -0.12850937

network.layyers.3.weight f4 [32, 32]
00000000: 3176 083e c2fb 15be 16bd 7fbe 074e 25be
00000010: 0ac1 1ebe 1336 e6bd 4388 c23d 4f12 c2bd
00000020: 1363 6bbe 4aae e8bd a59c 7e3c eb26 283e
00000030: 696d 77bd 554f 90be 97a2 90be 1b14 a4bd
00000040: af47 0cbd c33b b9bd a9b2 183e a206 ea3d
00000050: 6764 36be 710f 173e c8aa 74be a7b6 4cbe
00000060: fe2b 5bbd 88f5 e2bd 3a6f 9d3d 8f20 aa3d
00000070: 40cc 303e 74e5 f73c 2f31 1fbd 45ae 51be
00000080: 9787 a03e ab0e 80bc fcc2 2abe 921d 80be
00000090: 4e29 a7bd 6155 85bd 6758 1d3e 3efe 6abe
000000a0: 114a 28bd 5fca a6bd 935d e53e 14eb 32be
000000b0: 8eaf aabd 5a0f 1ebe e34d 90be e32a da3d
000000c0: cf63 a8be ec6f 5b3e f0d6 d2bc 723f 9c3d
000000d0: 3c2b d1be ceb3 863e f947 0bbe 65d5 17be
000000e0: dfce 36be 3f3b d4be eeb2 36be e033 873d
000000f0: 4766 64bd f1be 193d 5c9f 80be ab23 51be
00000100: a63a c3be 5388 b43c 7ef3 a63e 53cd ca3d
00000110: c3f7 723e 8870 953c 934a 303e c71f e03c
00000120: 3a40 c4bc 069f 9dbc 7705 77be ba68 d43c
00000130: 3d8f d7bd 5069 243e afc1 0b3b e640 3cbe
00000140: c88a 333e edba 353e 73ee e03c 3a8a 6b3c
00000150: ff63 7f3e 7771 f53d b882 b63e ff57 ecbd
00000160: 97be 213e eee0 76bc 622c 4c3e 10cd 89bc
00000170: 0917 373d 5fa3 0abe e016 90bd 8064 763e
00000180: a5e0 2d3e 619f fbbb 4d57 03bd 60d5 563d
00000190: f94a eb3b 73ca c63d 8ddd bfbd 02a4 b73c
000001a0: 4d56 f93d 78fa 20be 4a32 cabd 4191 a0bd
000001b0: 20e2 0b3d 2f27 293d 19e2 3f3c c033 743e
000001c0: 6279 dfbd c201 71be 8f5b 243d 583d ac3d
000001d0: eb93 d6bd 7b21 e8bd 05bb 13bd 49ea c4bd
000001e0: 39b0 0ebe cc9e acbc 2cb0 9b3d b9b4 80bd
000001f0: 6a0f bdbd df97 913d 4522 10be bdfe 50be
00000200: dd9f 863d e10c 013e 798f f9bd b291 b4bc
00000210: 6fe0 04be 95b3 cf3d 534a 583d f221 51be
00000220: 0aeb 523d 34b8 e53d 316f 93bb 2d14 0bbe
00000230: cb6e 82bd 3114 e83d ffb6 c9bd 8b70 2cbd
00000240: e204 39be ceab abbd f6a4 493b 3d21 45be
00000250: cde8 3bbe 8bf0 c5bd e44f bdbc 5d17 b0bd
00000260: 081f eabd 5f5d d1bc 3a6a 96be 9eec 023d
00000270: a3ea ddbc 5069 8dbc 2e18 cebb e734 983d
00000280: 488a e73c 2b2e 093f 8c13 923d 70e2 14bf
00000290: caf0 183e 2425 27be 7da4 113f f9ad 23bf
000002a0: 440e 19bd 29a5 f63d 611c ba3d ca9b 34bf
000002b0: 7e76 e6bc 46b8 9f3e 7095 133e 8faf 04bf
000002c0: 1704 fbbe 3d5c 38bd dee1 bb3e e777 4d3c
000002d0: 432f f13e c4aa fd3e 5302 b13e 0249 13be
000002e0: 2a61 5bbd 532d 8dbe ef7f 65bf 806f 483f
000002f0: 7743 63be 5cee 073f 7ea8 0abe 1495 b63d
00000300: c454 603e cff6 d9ba 1ff9 db3d f4d7 e0bd
00000310: 4398 813d b03b d13d c727 2cbe 2298 063e
00000320: 8765 453e 86ca 6a3d 7439 b53d b07a 323d
00000330: f2e0 0ebd 7430 03be d802 b43e 2531 e4bc
00000340: f2fe 003e cd2d 8e3e 4e7f eabc dea9 203d
00000350: f585 cd3c 4398 303d 81da 24be 1b18 253e
00000360: 707b 2d3d 70ac 8abc 5625 ccbd 35f4 2cbd
00000370: 6358 423e f9dd 03be 7098 e23d 2142 17be
00000380: 305b e63a 11d2 423d fbcf 78bd 8b91 16be
00000390: bccb 0dbe 2f09 0f3e 874b 943d cf02 31be
000003a0: 56f5 1bbe f246 b53d efe0 613e b4fe 37bd
000003b0: 1200 0f3e 188a 3bbe c3f5 a6bc 248c 7c3d
000003c0: 61e9 86be c159 04bc 2d0c aa3d 475d 62bd
000003d0: 4710 61be dd8f 973e fb30 33be 8f7e bf3d
000003e0: b02e fabd 277b 43be 2fad a7be a6b3 953e
000003f0: 39c9 c63d 95be f6bd 1ab6 1d3c a697 19be
0.13326336 -0.14646819 -0.24974474 -0.16143046 -0.15503326 -0.112407826 0.09498646 -0.09476148
-0.22987013 -0.11361368 0.015540277 0.16421096 -0.060407076 -0.28185526 -0.28249046 -0.08011647
-0.03424805 -0.09044602 0.14911903 0.11427046 -0.17811738 0.14751984 -0.23893273 -0.19991551
-0.05350875 -0.110819876 0.076872304 0.08306991 0.17265415 0.030260779 -0.038865265 -0.20476635
0.31353447 -0.015631994 -0.16675943 -0.2502256 -0.08162175 -0.06510425 0.15365754 -0.22948548
-0.04108626 -0.08144068 0.44797954 -0.17472488 -0.08334266 -0.15435544 -0.28184423 0.10652711
-0.32888648 0.21429414 -0.025737256 0.07629289 -0.40853298 0.26309055 -0.13601674 -0.14827497
-0.17852353 -0.4145145 -0.17841694 0.06601691 -0.0557616 0.03753561 -0.25121582 -0.20423763
-0.38130683 0.02203766 0.32607645 0.09902444 0.23727326 0.018242136 0.17215948 0.027358903
-0.023956407 -0.019240867 -0.24123178 0.025928844 -0.105253674 0.16055799 0.0021325161 -0.18384132
0.1753341 0.17747088 0.027457451 0.0143762175 0.24940489 0.11984532 0.35646605 -0.115402214
0.1579536 -0.015068276 0.19938806 -0.016821414 0.044699702 -0.13538884 -0.07035613 0.24061775
0.16980226 -0.0076789116 -0.03206568 0.052449584 0.0071805683 0.09706583 -0.09368429 0.022417072
0.12174664 -0.15720546 -0.09872873 -0.07840205 0.034151196 0.041297134 0.011711621 0.23847866
-0.10911824 -0.23535827 0.04012638 0.08410138 -0.10477432 -0.11334511 -0.036067028 -0.09614999
-0.13934411 -0.021071814 0.076019615 -0.0628447 -0.092314556 0.07109045 -0.14075573 -0.20409675
0.0657346 0.12602569 -0.12185568 -0.02204213 -0.1297624 0.101416744 0.052805256 -0.20423105
0.051493682 0.112167746 -0.004499339 -0.13581915 -0.06368788 0.11331976 -0.09849357 -0.042099517
-0.18068269 -0.083823785 0.003076849 -0.1925096 -0.18350525 -0.096650206 -0.023109384 -0.08598206
-0.114317 -0.025557218 -0.2937792 0.031963937 -0.027089423 -0.017262131 -0.0062895035 0.07431965
0.02826418 0.5358607 0.071326345 -0.58158016 0.14935604 -0.16322762 0.56891614 -0.63937336
-0.03736712 0.120432205 0.09087444 -0.70550215 -0.028132673 0.31195277 0.14412475 -0.5183038
-0.49026558 -0.04500984 0.3669576 0.012540794 0.4710637 0.49544346 0.34572086 -0.14383319
-0.05355946 -0.27573642 -0.89648336 0.78295135 -0.22193705 0.5309808 -0.13540837 0.08915153
0.21907336 -0.0016629341 0.107408755 -0.1097869 0.0632787 0.102164626 -0.16812049 0.13143972
0.19277011 0.057322048 0.08848849 0.043574035 -0.034882493 -0.12811452 0.3515842 -0.027855465
0.12597254 0.27769318 -0.028625157 0.039224498 0.02508829 0.043113958 -0.16098978 0.16122477
0.042354047 -0.016927928 -0.09968059 -0.04222508 0.1897903 -0.12877645 0.110642314 -0.1477132
0.0017574783 0.047563616 -0.06074522 -0.14703958 -0.1384725 0.13968347 0.07240968 -0.17286228
-0.15230307 0.08851422 0.22058462 -0.04492064 0.1396487 -0.18314397 -0.02038086 0.061657086
-0.2634993 -0.00807804 0.083031036 -0.055264737 -0.21978866 0.29601946 -0.17499153 0.09350311
-0.12215936 -0.19089948 -0.32749316 0.29238623 0.09706349 -0.120480694 0.009625936 -0.14999256

network.layyers.3.bias f4 [32]
00000000: 26e1 193e 2393 d93d 770e a2bc 98a3 f4bd
00000010: d1f5 d1bd 5ec7 80bd 8cfa 0d3e 7141 963d
00000020: 7b94 4c3d ada0 e63b 5266 b4bd f804 ad3d
00000030: 81a3 34bd 3894 1dbe cee7 22be 3e7c 0b3e
00000040: 62d8 eb3d 66f7 24bc c9de 07be efcb 78bd
00000050: 8d7e e73d ff7a 31be 4642 cb3d df9a f9bd
00000060: dab1 f33c 5749 533e 5a1b 423d 4340 233b
00000070: a5c6 08be 890d 99bd 04db dc3d 8e07 82bd
0.15027294 0.10623767 -0.019782288 -0.119452655 -0.10251964 -0.06288026 0.13865107 0.07336701
0.04994629 0.007038197 -0.088085786 0.08448213 -0.044101242 -0.15388572 -0.15908739 0.13621613
0.11515881 -0.01006875 -0.1326858 -0.06074136 0.113034345 -0.17332076 0.0992475 -0.121877424
0.029747892 0.20633446 0.047389366 0.002491013 -0.13357027 -0.07473285 0.107839614 -0.06349097

network.layyers.4.weight f4 [1, 32]
00000000: f5bd 0ebe f285 16be a80a 4d3e 21aa 183b
00000010: 2bc7 d33b 7fc0 59bf 1272 89bd 7512 f9bc
00000020: 2468 7b3e 9a3e 37be 98af e13c bb82 1f3e
00000030: 30d6 2c3e bb9b d13e 53f5 363e e808 2a3e
00000040: 665a 8f3e 61d5 4d3e 2a05 75bd 133d e6bd
00000050: e6cd 63be 4a75 513e e7a6 36be 46a8 38be
00000060: 7a7a 02be f1b3 8a3e 54ad 933e 7c6c b63d
00000070: f442 35bd e99f 183e 9db0 86be 345c 4d3e
-0.1393965 -0.14699534 0.20023596 0.0023294764 0.0064629517 -0.8505935 -0.0671121 -0.030404309
0.24551445 -0.17894974 0.02754955 0.15577213 0.16878581 0.40939125 0.17867021 0.1660496
0.27998656 0.20100929 -0.059819378 -0.11242118 -0.22246513 0.20454898 -0.17837106 -0.18032941
-0.12742034 0.2709041 0.28843176 0.089074105 -0.044253305 0.14904751 -0.2630662 0.20054704
