model/stage3_ipinn_model.pth (torch, 3282 bytes, 3 tensors)

network.layyers.0.weight f4 [20, 2]
0.8782205 -0.05147345 0.7871627 -0.8978552 1.2586864 0.8605486 0.10418579 -0.02605291
0.069446 -0.08465265 -4.25341 0.030802075 1.8852497 -1.6555433 0.29646862 0.08904851
0.21359567 0.058361635 -0.50032836 -0.51594585 -2.8653078 0.30077896 -0.1919067 0.3347485
0.13235314 -0.24412298 0.008160253 -0.8579346 -0.7767418 -0.121351585 -0.6747911 -0.55213773
-0.09470371 0.09830064 -0.31408298 -1.0966063 -0.98906195 -0.53537613 -1.7314712 1.9810632
00000000: 0fd3 603f d3d5 52bd 7f83 493f d7d9 65bf
00000010: a31c a13f ea4c 5c3f 5c5f d53d ea6c d5bc
00000020: b439 8e3d 5e5e adbd ef1b 88c0 a254 fc3c
00000030: dd4f f13f d8e8 d3bf bcca 973e 115f b63d
00000040: d3b8 5a3e 9c0c 6f3d 8515 00bf 0715 04bf
00000050: 3461 37c0 b3ff 993e 3183 44be 2864 ab3e
00000060: 9587 073e 60fb 79be 95b2 053c 9aa1 5bbf
00000070: 8dd8 46bf 2e87 f8bd 1cbf 2cbf e658 0dbf
00000080: 05f4 c1bd d951 c93d 7ccf a0be 985d 8cbf
00000090: 2a33 7dbf 690e 09bf d9a0 ddbf 7b93 fd3f

network.layyers.0.bias f4 [20]
-2.7322793 -0.24168926 0.63224536 -0.2124234 0.39412543 8.461427 -2.6174555 -1.3031459
-0.9015866 0.055632018 5.5086627 -0.503987 0.3827476 -0.31173435 0.6079419 1.8626043
0.06691187 0.32451016 2.2984636 2.045446
00000000: aadd 2ec0 647d 77be d5da 213f 8585 59be
00000010: cfca c93e 0162 0741 6484 27c0 7ccd a6bf
00000020: 61ce 66bf 66de 633d f746 b040 4b05 01bf
00000030: 7ef7 c33e a59b 9fbe 15a2 1b3f d169 ee3f
00000040: 1709 893d 3226 a63e 071a 1340 96e8 0240

network.layyers.1.weight f4 [1, 20]
-0.80574363 0.35298988 0.8685833 1.7644113 0.14732774 1.1606894 -0.748959 0.8936276
0.892375 0.3344022 -0.5880545 -0.25567597 0.26648015 0.72355443 0.42793718 -2.1918285
-0.18648858 -0.49193704 1.722269 -0.45531353
00000000: 3745 4ebf 17bb b43e 7a5b 5e3f 3bd8 e13f
00000010: 15dd 163e 7891 943f c7bb 3fbf c7c4 643f
00000020: b072 643f c436 ab3e bd8a 16bf f6e7 82be
00000030: 1670 883e dd3a 393f 951a db3e eb46 0cc0
00000040: ddf6 3ebe 2cdf fbbe 5073 dc3f db1e e9be
